experiments/autoencoder/runs/checkpoints/best_checkpoint.pth.tar (torch_old, 119492 bytes, 14 tensors)

module.layer1.0.weight f4 [16, 1, 5, 5]
000000 5f ac 83 bc b8 5a c8 3d f6 78 22 be 0d 72 ee bd
       -0.016073404 0.09782928 -0.15866455 -0.11642847
000010 df bc 5d bd f1 70 cc 3c a1 2c 00 bd a5 7b 08 3e
       -0.0541352 0.024956198 -0.03129256 0.13328417
000020 c9 35 03 bd e4 01 50 3d 59 ec 97 bd 69 0e 90 bd
       -0.032033715 0.050783053 -0.074181266 -0.070339985
000030 82 61 61 be 9f 59 10 be 5e 93 95 bd 52 a8 cd 3c
       -0.22009853 -0.14096688 -0.07303499 0.025104675
000040 b2 7a a1 3d e6 d2 07 3e d4 1a d4 bd 13 5e 71 bd
       0.078847304 0.13264045 -0.103566796 -0.058927607
000050 6d ac c1 3d af e6 35 3e 32 6f d7 ba 07 74 41 3e
       0.09456716 0.1776378 -0.0016436337 0.18891917
000060 b2 b2 fe 3b 59 06 4e 3d d4 79 2a 3e 71 44 28 be
       0.007772767 0.050299022 0.16648036 -0.16432358
000070 e9 34 ad bd 64 15 6b bd ac f5 c8 bd d6 51 07 3e
       -0.084573574 -0.057393447 -0.09812483 0.13214812
000080 fa 38 23 be 4f 63 e8 bd f6 40 3a be a2 2b 69 be
       -0.15939704 -0.113470666 -0.18188843 -0.22770551
000090 14 15 33 be 84 4f fe 3d 60 1b 58 3d 05 98 46 3d
       -0.1748851 0.1241751 0.05276048 0.04848482
0000a0 a4 7b 9f b8 91 6a 12 be a9 10 e0 bb 7a 6b 4a be
       -7.604741e-05 -0.14298464 -0.0068379235 -0.19767562
0000b0 22 d6 23 be 55 de e6 bd d9 71 f2 3d 63 5c ed 3d
       -0.15999654 -0.11272875 0.11838121 0.11589887
0000c0 8c 95 99 bd 60 a4 12 bc 65 de 01 3e 86 76 36 3e
       -0.07499227 -0.008950323 0.12682493 0.1781865
0000d0 41 63 5a 3d c9 87 29 3c 3c ee 05 3e 09 ff d7 bd
       0.053317312 0.010347315 0.1307916 -0.10546691
0000e0 df eb 27 3d c6 c2 0b be 76 e2 d1 bd 37 a8 a5 bd
       0.04099643 -0.13648519 -0.10248272 -0.08088725
0000f0 f9 ec a4 3d 23 b6 8e 3d a9 c4 d0 bd 59 37 c1 3d
       0.080530114 0.069683336 -0.1019376 0.09434385
000100 94 49 fc 3d 1d 14 93 bd a8 15 c5 bc d5 83 f8 3c
       0.123187214 -0.07181571 -0.024058178 0.0303363
000110 29 8c 01 3e 2f b8 50 3e 8d ee 54 be aa 20 eb bd
       0.12651123 0.2038276 -0.20794125 -0.114808396
000120 a9 37 49 3d c4 47 21 3e 7d d6 28 3e c3 4e 27 3e
       0.049125347 0.15750033 0.16488071 0.16338639
000130 98 2f a6 3c d3 aa 30 be b5 43 b4 3c e8 88 0b be
       0.020286366 -0.17252664 0.022004941 -0.13626444
000140 ea bd 32 be 0d 29 2d 3e 58 90 19 3e 00 84 52 be
       -0.17455259 0.16910191 0.14996469 -0.20558167
000150 ec cc 02 bc bf 2f 9a bc 25 78 c8 bc 60 3f ba bd
       -0.0079834275 -0.018821595 -0.024471352 -0.09094119
000160 fc 47 3d 3d ac 02 45 be 18 7f a4 3d a3 5c c4 3d
       0.046211228 -0.192393 0.08032054 0.095879816
000170 45 c2 05 3e 0e 65 10 3d 58 a6 85 be 31 c1 c1 bd
       0.13062389 0.035252623 -0.26103473 -0.094606765
000180 be 0d ff 3d 69 a5 49 3d fc 30 2a be 8f e2 1a be
       0.12453793 0.049230013 -0.16620249 -0.15125488
000190 99 a2 32 3e 58 fc ca 3d 63 76 14 be 98 65 f9 bd
       0.17444839 0.09911412 -0.14498286 -0.121775806
0001a0 f2 af 54 be 52 fa 18 bd f7 75 50 be 5c f4 56 be
       -0.20770243 -0.0373481 -0.203575 -0.20991653
0001b0 0f 28 3f bd f5 c2 b7 3c b3 a1 f9 bd c5 dd 8b 3d
       -0.046669062 0.02243183 -0.12189045 0.068294086
0001c0 0c 3d 0f be 5f fe 1e 3e da 1d 07 3e e2 17 45 be
       -0.13988131 0.15526722 0.13194981 -0.19247392
0001d0 d2 d2 50 bd a6 b9 44 3c 07 ac 9e 3c ec 10 2f 3d
       -0.050982304 0.012007153 0.019369138 0.042740747
0001e0 b3 69 2c 3d 1b f9 e9 3b dc 75 c3 bd 4b 43 ad 3d
       0.04209299 0.0071402914 -0.09543964 0.08460101
0001f0 21 f8 30 be 74 b2 f5 bd f6 bc a8 bd cb 7d fe bd
       -0.17282154 -0.11996928 -0.082391664 -0.12426337
000200 97 a0 b9 bd 49 cb 45 be 0b 7e 1c bd d1 dd c5 bb
       -0.09063833 -0.19315828 -0.03820614 -0.0060384055
000210 a1 21 32 be 6a ef e9 bc 47 2a 0b 3e 2b b5 09 bc
       -0.17395641 -0.028556544 0.13590346 -0.00840501
000220 0a 16 0b bd 61 da 3d bd d1 fb 12 3d 82 61 f9 3d
       -0.033956565 -0.04635084 0.035884682 0.12176801
000230 ea 37 46 3e e9 46 fb 3d f2 52 42 3e 88 95 48 bc
       0.19357267 0.122693844 0.18976954 -0.012242682
000240 b8 d6 27 be 9d 3d 18 be 7f a9 d7 3d 7c 87 83 39
       -0.16390502 -0.14867254 0.10530376 0.0002508721
000250 59 d5 84 bd 88 c9 dd bd e5 28 0b be 49 a7 c4 bd
       -0.06486005 -0.10829455 -0.13589819 -0.096022196
000260 b1 8e 82 3c 1d 3c 20 3e 05 24 1f 3e 74 b7 7e be
       0.015937181 0.15647931 0.15541084 -0.2487467
000270 88 07 58 3d 42 41 53 be dc 6e d2 bc 9a 08 3b bd
       0.052741557 -0.20630363 -0.025687627 -0.0456625
000280 69 78 7f bd 2b 4f c5 bd 17 fd 8e be fb 54 7a be
       -0.06237069 -0.09634241 -0.27927467 -0.2444648
000290 82 c9 a3 bd 0f 59 ca 3b ff 7c 80 bd 01 16 81 3d
       -0.07997419 0.0061751674 -0.06273841 0.06303025
0002a0 de d6 58 be 8c 1d 6e bd a0 a2 4b 3e 8b d3 65 bd
       -0.21175715 -0.058133647 0.19886255 -0.056109946
0002b0 bd ff 38 3e ed b1 a2 3d a9 8e 26 be f0 b0 ef 3d
       0.18066306 0.07944093 -0.16265358 0.1170367
0002c0 26 f5 22 bd a4 5f bf bd 90 f7 2c 3e 6b 38 01 be
       -0.039784573 -0.09344414 0.16891313 -0.12619178
0002d0 c1 b6 c1 3b 03 2f 33 bd 15 64 21 3e 3f 91 aa 3d
       0.0059116785 -0.043746006 0.15760835 0.08328485
0002e0 57 1b 07 3e 0b 2a 3c 3d 8e 03 3c bd bc 6d fc bc
       0.13194023 0.045938533 -0.045901828 -0.030814044
0002f0 cf f3 12 be a1 f4 f0 3d 7d c6 ff 3d a6 c7 ff 3d
       -0.14350818 0.11765409 0.124890305 0.12489252
000300 0a 7f 13 be cd 6c 53 3b d5 fe 1e be 40 2b 0e be
       -0.1440393 0.0032260895 -0.15526898 -0.13883686
000310 76 20 13 be 06 6a 1b 3d 64 e3 13 be 93 9f f0 bc
       -0.14367852 0.03794291 -0.14442211 -0.029372966
000320 a9 aa 30 3d 33 e8 19 3e 42 47 15 be fa b6 12 be
       0.043131504 0.15029983 -0.14577964 -0.14327613
000330 1a 6a 20 be 9f 8d 2e 3e 9d 7d 99 bd b5 04 1b 3e
       -0.15665475 0.17046212 -0.07494662 0.15138514
000340 68 1e 2d 3d 7e 99 bf bc 1e 6e 8e 3a 61 19 3e bd
       0.042265326 -0.02338862 0.0010866558 -0.046410922
000350 f2 6a 81 3c 97 65 81 bd 70 9f 14 bd a1 97 aa 3c
       0.015798066 -0.06318205 -0.036284864 0.020824255
000360 68 47 20 be f2 a5 cf bd 49 01 2a 3e 08 71 22 be
       -0.1565224 -0.101390734 0.16602053 -0.1586343
000370 2f fe ae bc 08 23 41 3e c5 5c 91 3d 45 e5 7e 3c
       -0.021361439 0.1886102 0.070977725 0.015557592
000380 95 e7 12 be 6b 3d bb 3d 79 9a 10 be 8c 51 8c bd
       -0.14346154 0.09142574 -0.14121427 -0.06851491
000390 a8 74 c3 bd e7 1f 96 bd 4c 0b 47 3c 5d c2 2f 3e
       -0.09543735 -0.07330304 0.0121486895 0.17163987
0003a0 e4 be c1 3c 6f 06 2e 3e cf 5c d2 3d 2a a0 03 be
       0.023650594 0.16994642 0.10271608 -0.12854066
0003b0 5f 3d aa 3d 27 87 26 be 33 ff f4 bd 5e 94 d2 3c
       0.08312487 -0.16262494 -0.11962738 0.025705513
0003c0 98 07 40 3d d2 41 0c 3e e1 ff a8 bd 79 68 27 bd
       0.046882242 0.13696983 -0.0825193 -0.040871117
0003d0 93 72 6e 3d c5 a7 65 be 31 c3 09 3e 2d 8e 2c be
       0.058214735 -0.2242728 0.13453366 -0.16851111
0003e0 b7 66 23 bd e5 e6 95 bd bd fb 87 bd eb 7c 62 3d
       -0.03989288 -0.0731943 -0.06639812 0.055294912
0003f0 bb 15 2d 3e bb 61 48 bd 2d 21 d4 bd 0e 34 6f bd
       0.16902821 -0.048921328 -0.1035789 -0.058399253

module.layer1.0.bias f4 [16]
000000 1e fc e5 3d 93 40 2a ba 8f 0b 0e be 72 b8 14 3e
       0.11229728 -0.00064946077 -0.13871597 0.14523485
000010 8e 37 18 3d 96 65 11 be 2f 34 e1 3d 16 6c 1b 3e
       0.037162356 -0.14198908 0.10996281 0.1517795
000020 6f 3f 59 bd 21 f0 a8 3d 7a 9a 06 be 52 1c f9 bc
       -0.05303901 0.08248926 -0.13144866 -0.030409012
000030 f9 d3 25 3e ba 93 4a 3d a9 c1 b7 bd 43 99 0f be
       0.16194142 0.04945729 -0.089724846 -0.14023308

module.layer1.2.weight f4 [16]
000000 3d e6 c3 3e e8 39 cb 3e 66 e7 02 3f ee 35 6d 3f
       0.38261595 0.39692616 0.51134336 0.92660415
000010 68 23 16 3f f8 83 81 3e f4 e8 12 3f d8 3e 3b 3f
       0.58647776 0.25295997 0.5738671 0.73142767
000020 1f 85 31 3f 7f fc 9d 3d d5 de de 3e f0 4a 3e 3e
       0.6934375 0.077141754 0.43529382 0.18583274
000030 a5 4a 84 3e 5c 30 1e 3f a2 d6 59 3e 01 1e 2a 3f
       0.258382 0.6179254 0.21273282 0.6645203

module.layer1.2.bias f4 [16]
000000 39 f7 d5 3d fa 0a 9f bc ac 5b b7 3d 1d e8 a1 3d
       0.104475446 -0.019414414 0.08953032 0.079056
000010 67 e3 69 3d e4 c1 95 3d f0 5b 46 3b 57 65 1b 3d
       0.057101633 0.07312372 0.0030267201 0.037938442
000020 d2 85 95 3d 9d 17 07 3d 75 5e ab 3c 5c 90 18 3d
       0.07300915 0.032981504 0.020919064 0.037247047
000030 9a f6 b4 3c fb ed a5 3d fe 08 9a bc 40 f2 c7 3d
       0.022090245 0.08102032 -0.018803116 0.097630024

module.layer1.2.running_mean f4 [16]
000000 63 97 ef 3d df eb 12 3b 0a 83 8b 3d c5 ad fd 3d
       0.116987966 0.0022418422 0.06812103 0.123866595
000010 59 3a 01 3d be fe ac 3b 11 55 ac 3d 45 68 16 3e
       0.031549785 0.005279391 0.08414663 0.14688213
000020 a9 e7 54 3c 64 7f 84 3d e5 44 86 3b 57 27 ce 3b
       0.012994685 0.0646961 0.0040975683 0.006291311
000030 fd 6b 1e 3e ad 72 74 3e b0 a2 df 3b e8 2e 94 3d
       0.15470882 0.2387187 0.006824814 0.07235509

module.layer1.2.running_var f4 [16]
000000 e2 ab 18 3c 70 c3 45 39 85 6c d6 3c 9e d3 fc 3b
       0.009318324 0.0001886019 0.026174793 0.0077156564
000010 f3 a6 bc 3a 55 2f 80 3a 45 3f a0 3b 43 e9 04 3c
       0.0014393016 0.0009779731 0.004890355 0.008112255
000020 8e 30 05 3b ed a2 06 3b 8f d7 6e 3a a3 0c 74 3a
       0.002032313 0.0020543889 0.00091111 0.00093097443
000030 1a bf 09 3c e7 19 ff 3d f0 e0 8b 3a 09 e3 06 3d
       0.008407379 0.12456112 0.0010671895 0.03293136

module.layer2.0.weight f4 [32, 16, 5, 5]
000000 b1 8a a0 3c 33 29 89 bc 8f fc 49 bd 7d 3a f3 bc
       0.019597383 -0.016743278 -0.049313124 -0.029690975
000010 8f 58 15 3d a1 cb dc bc 5e cd 2d 3d dc ce 20 bd
       0.03646141 -0.026952567 0.04243218 -0.039259776
000020 f6 86 3d bd 15 14 e8 bc df 87 9f bc d4 7b ec 3c
       -0.046271287 -0.028329888 -0.019473968 0.02886764
000030 bd 2a 92 bd 8e 35 06 3a 7e b2 32 bd 28 71 eb 3a
       -0.07137058 0.00051196746 -0.043627255 0.00179628
000040 44 4a 2a 3b dc 0c 9f bd 17 06 80 3b de 5e 91 3b
       0.0025984207 -0.077661246 0.003906976 0.004436358
000050 6b f4 01 3d 88 2a c8 3b 41 8a 8c bd 81 b3 3d 3c
       0.031727236 0.0061085857 -0.06862307 0.011578442
000060 73 2d 22 bb 7b 0c 4a 3d 87 32 e9 bc 6a 6a 48 bc
       -0.0024746328 0.04932831 -0.028466476 -0.012232402
000070 c9 64 26 bd 80 8a 07 3b a0 08 18 3d 44 df 31 bd
       -0.04062346 0.0020681918 0.0371176 -0.043425813
000080 3e 1e 18 3c 1d 54 5f 3d b1 49 d7 3c 24 d5 5b 3b
       0.009284554 0.054523576 0.026280256 0.003354379
000090 28 ca f2 bc 28 3a 06 bd d1 fd 9f 3c 8b 1d 14 3d
       -0.029637411 -0.032770306 0.019530209 0.036160987
0000a0 2c 5e ac 3c 34 10 2e bc 27 77 55 3a 0f 2e 54 bd
       0.021040998 -0.01062398 0.000814306 -0.051801737
0000b0 3c 41 86 bd d9 24 28 3d 1b d3 ef bc d7 2a 14 3d
       -0.06555411 0.041050766 -0.029275468 0.036173668
0000c0 1d ef 1d bd 7a 2b 0a bd ca f6 85 bd fa bc 03 3c
       -0.038558114 -0.03373287 -0.06541212 0.008040661
0000d0 e2 fe 83 bc 1d a5 2f 3d c0 05 29 3d 76 8b 49 3c
       -0.016112749 0.042882074 0.04126525 0.0123013165
0000e0 e1 d2 ad bb 19 6a a8 bc b3 f8 51 bc 5b fe 92 3c
       -0.0053046797 -0.020558404 -0.012815642 0.017943552
0000f0 0f c7 2b bc fd 4e 57 bd 3c ef 1f 3d bc 2f 21 bc
       -0.010484471 -0.052565563 0.03904651 -0.009838041
000100 83 c9 62 bd 1a 2a 84 bd cf 2c 0d 3d af 97 2a 3d
       -0.055367958 -0.06453343 0.03446656 0.041648563
000110 fe b4 67 bd 7d ac 4d 3c 1e c8 67 3b 4f 97 22 3d
       -0.056569092 0.012553331 0.0035367082 0.03969508
000120 72 d0 48 3d b6 80 44 bd 76 75 22 bc 3b 60 1e 3d
       0.049026914 -0.04797431 -0.0099157 0.03866599
000130 16 09 4b bb 0d 27 04 3d c6 5d 89 3b 09 25 81 3d
       -0.0030980757 0.032263804 0.004192087 0.06305892
000140 eb b3 8b bb c3 42 5b bc 62 3f 42 3b 34 46 a1 3c
       -0.0042633913 -0.013382616 0.002963983 0.019686796
000150 39 37 ed bb c9 aa e6 3b 84 fe 6b 3c 65 0d 0d bc
       -0.007239249 0.007039402 0.014403943 -0.008609151
000160 98 39 2f 3c 08 0d 22 bc 82 0f 73 3c f0 e7 38 bd
       0.010694884 -0.009890802 0.01483524 -0.045143068
000170 a6 ab 18 bd 8e b3 ca bc d3 41 1e 3d 2d e8 9d bc
       -0.03727307 -0.024743821 0.038636994 -0.01927575
000180 cd 0d 9c bb 55 26 2b bc b8 fc 5d 3d 15 f7 1a 3d
       -0.0047623874 -0.010446151 0.05419609 0.037833292
000190 93 69 2f bd 29 2b 6e bd 17 2a e4 bd 4b f4 54 bd
       -0.042825293 -0.05814663 -0.111408405 -0.05199079
0001a0 69 0c 02 bd 50 f7 2a bd 1e 2c 08 bd ff e5 28 bd
       -0.031750116 -0.04173976 -0.0332452 -0.041234966
0001b0 26 36 8d bd c4 17 26 bc 59 84 22 bd b8 6f 53 bd
       -0.068950936 -0.010137502 -0.039676998 -0.051620215
0001c0 fe 74 14 bc b6 41 c8 3c 32 f7 66 bd 7e ff fb bc
       -0.009061096 0.024445396 -0.056388088 -0.030761477
0001d0 fb 03 a1 bd 7e 1f c9 3c 32 7b 38 bd ee ab 97 bd
       -0.07862087 0.02455115 -0.045039363 -0.0740584
0001e0 ff 4f 6f 3c a7 71 48 bd 6b 59 91 3c f6 01 c7 bc
       0.014606475 -0.048936512 0.017742833 -0.024292927
0001f0 db 23 d9 bc 6e 24 54 bd 20 da 19 3b cb 77 e1 bc
       -0.026506355 -0.051792555 0.002347596 -0.027522942
000200 8b 11 87 bd 04 ff 99 bd ff f6 0e bc 13 e0 8b 3c
       -0.06595143 -0.075193435 -0.008725881 0.01707462
000210 b0 70 7c bd 95 a2 48 3c 78 02 08 bd ed e4 ce bc
       -0.061630905 0.012245794 -0.03320548 -0.025255645
000220 e2 01 9b 3c 45 98 83 bb d6 dd 9b 3b a3 45 f0 3a
       0.018921796 -0.0040159547 0.0047566695 0.00183313
000230 37 33 91 bd 7a 7e 95 bd bf 4f 04 bd 69 e7 53 3c
       -0.070898466 -0.07299514 -0.032302614 0.01293359
000240 7a ce 5b bd d0 f1 66 bd f5 cf b4 3c fa 2f 70 3d
       -0.05366371 -0.056382954 0.022071818 0.058639504
000250 9b 1d 58 bd 85 73 a1 bd b2 70 e5 bc 4f 76 2d 3c
       -0.05276261 -0.07883362 -0.028007839 0.010587289
000260 3f a5 a9 3a 07 1e 40 bd dd d1 10 3c ff 1a 05 3d
       0.0012942924 -0.046903636 0.008839098 0.03249645
000270 53 25 05 3d 7a 6f 2a 3d 69 68 58 bb 56 c6 35 bd
       0.0325063 0.04161022 -0.0033021218 -0.0443786
000280 b2 9b 4c bd e7 da 0d 3d ca a1 a3 bc 9a ea a1 b9
       -0.04995317 0.03463259 -0.019974608 -0.00030883105
000290 4c aa 84 bd 67 e6 55 3d 45 f7 37 3d 0a 25 09 3b
       -0.06477794 0.052221682 0.04491355 0.0020926618
0002a0 f2 5b ad bd 7b bc 1d bd 70 52 31 bd f4 0c 6a 3c
       -0.08464803 -0.038509827 -0.04329151 0.014285315
0002b0 40 cd 8d bd e6 0b 88 bd 6a 16 0d 3d 9c d0 24 bd
       -0.06923914 -0.066428944 0.034445204 -0.040238008
0002c0 3f b9 3d bd 6a e9 db bb 89 0f 1b bd 75 f7 5d bd
       -0.046319243 -0.0067111747 -0.037856612 -0.05419107
0002d0 14 89 89 bb 49 e5 85 bd b8 41 e8 bc 28 de ac 3b
       -0.004197249 -0.06537873 -0.02835165 0.0052755065
0002e0 20 8a ee bb b6 c4 d6 bb 63 d7 02 3d f5 1b f0 bc
       -0.0072796494 -0.0065542115 0.03194369 -0.029310206
0002f0 24 36 64 bd 6c 5b 1b 3d e7 60 b0 bb e7 d3 3c bd
       -0.055715695 0.037928984 -0.0053826454 -0.046100523
000300 5a 8d 31 bd ad 08 84 bd 5c b9 5c 3d 05 d8 8e ba
       -0.043347694 -0.06446967 0.05388771 -0.0010898119
000310 b1 7d 39 bd 61 9a 79 bd 49 53 93 ba 21 7d f1 39
       -0.045285884 -0.060938243 -0.0011240031 0.0004606033
000320 cf 5e 95 3c 11 fd 16 bc f5 60 88 3c da be e8 3b
       0.018233685 -0.009215609 0.016647795 0.0071028294
000330 73 2e 62 3c e7 62 f2 bc b5 fa 18 bd 65 9b 4b 3c
       0.01380502 -0.029588176 -0.037348468 0.012427186
000340 aa 87 74 3b 54 b0 1c 3c 6d 91 bc 3b 94 3f 8b 3c
       0.0037312307 0.009563524 0.005754641 0.01699809
000350 0c fb 3a bd f6 4b 27 3d 77 86 1f bd dc 73 c7 3c
       -0.045649573 0.040843926 -0.038946595 0.024347238
000360 65 6a 4d bb 11 fa 0f bd 0b 90 f0 b9 2a c9 54 bc
       -0.0031343934 -0.03515059 -0.00045883688 -0.012987414
000370 4f 58 e1 3c 47 a6 4b bc 92 1a 50 bd a7 a8 3e bd
       0.02750793 -0.01242978 -0.05080659 -0.04654756
000380 51 c1 c2 3b 26 5f 18 3c 45 ac 3f bd a2 6a 6f ba
       0.0059434553 0.009300029 -0.04679515 -0.0009133016
000390 c9 17 85 bc 03 80 97 bb 61 af 2f bb 63 da b0 bd
       -0.016246693 -0.0046234145 -0.0026807415 -0.08635404
0003a0 09 2f 6f bd 82 31 70 3c 67 a8 b6 bc da d4 45 3d
       -0.058394466 0.014660241 -0.022297097 0.048298694
0003b0 00 33 9a bc 28 bc fe ba 41 88 52 bd 0a 92 9e 3a
       -0.018823147 -0.0019434737 -0.051399473 0.0012097966
0003c0 00 82 ca bc 61 78 81 3c 3d 59 0a bc 1d 2f 07 3c
       -0.024720192 0.015804471 -0.008444128 0.008250979
0003d0 9c 0d 2c b9 89 3a bb bb 04 3c 0b 3d 91 ac c9 bc
       -0.00016408268 -0.005713765 0.033992782 -0.024618419
0003e0 4c a6 70 3c 00 73 30 bd be 74 bb bc 46 4e c4 bc
       0.014688086 -0.043078423 -0.022882815 -0.023963105
0003f0 70 b0 a5 3c 73 8e 83 3d 50 13 e1 3c f9 e4 08 bd
       0.020225734 0.064236544 0.02747503 -0.03342149

module.layer2.0.bias f4 [32]
000000 9d 00 f2 bb 48 7c 6e bd 45 eb 74 bd d4 31 db bd
       -0.007385327 -0.058223993 -0.059794683 -0.10702863
000010 1e e5 c0 bd 8d 7c 27 3c 3d 28 f5 bc fb 17 97 bc
       -0.09418701 0.010222566 -0.029926414 -0.018444052
000020 00 95 99 bc ac 05 e7 bc 92 4d 7b ba b9 0e a1 3a
       -0.018747807 -0.028200947 -0.0009586449 0.0012287713
000030 6d 89 63 bc 77 cc 48 bd de 4a 73 3a bf 0b e3 bc
       -0.013887745 -0.049023118 0.00092808704 -0.027715562
000040 a0 c3 d4 bc 3b 9a a1 bd 44 23 ca bc 81 6f 54 bc
       -0.025972188 -0.07890745 -0.02467502 -0.012966038
000050 05 5c 9a bc 79 71 02 bc a0 11 87 bd 86 e3 3a 3a
       -0.018842706 -0.007961624 -0.065951586 0.00071292405
000060 c1 ce a0 ba bf 4e a7 bd b4 07 ae bd 26 3a 60 bc
       -0.0012268649 -0.081693165 -0.08497563 -0.013685739
000070 22 0c cf bd b5 0a 7a bd 3f be f6 bb 1f ca 8a bd
       -0.10109736 -0.061045367 -0.0075300033 -0.06776833

module.layer2.2.weight f4 [32]
000000 b0 e9 d1 3e 6b 55 e9 3e 4a 55 3e 3f da fd 67 3e
       0.40998602 0.4557298 0.7434889 0.2265543
000010 3c bd 26 3f ef d6 31 3f 3e e2 3b 3f af ef 17 3f
       0.651325 0.6946859 0.73392093 0.59350103
000020 9d 04 53 3f d9 7a 0d 3f 46 b8 75 3f 1c a8 64 3f
       0.82428914 0.55265576 0.95984304 0.89319015
000030 a4 bb 73 3e fa 42 fb 3e e0 86 72 3f c4 11 04 3f
       0.23802048 0.49074537 0.9473705 0.5158961
000040 2e 6c d8 3e da 7c 0d 3f 1e 38 ef 3e 23 c3 d4 3e
       0.42270035 0.55268633 0.46722502 0.41555128
000050 b7 c5 35 3f 77 e2 79 3f 69 38 27 3f e4 4e 5a 3f
       0.71004814 0.9761118 0.6532045 0.8527663
000060 6b ba 71 3f d1 45 9a 3e f8 43 78 3e 4b 37 03 3f
       0.94425076 0.3013139 0.24244678 0.51256245
000070 1c 22 36 3f b3 02 08 3f 7e 05 ba 3e 4f 85 89 3e
       0.71145797 0.5312912 0.36332315 0.2685952

module.layer2.2.bias f4 [32]
000000 73 3c 8c bb c1 f0 b5 bc 06 aa e5 bc 69 3c 07 bc
       -0.004279667 -0.022209527 -0.028035175 -0.008254149
000010 97 a2 ea bb 65 c0 a2 bc 17 73 0b bd ec 87 95 3c
       -0.0071604955 -0.019867131 -0.034045305 0.01825329
000020 fe e5 1f bd 99 90 c3 bc a3 95 e5 bc 74 14 d6 bc
       -0.039037697 -0.02387266 -0.028025454 -0.0261328
000030 93 c1 b6 bb d6 4a 0c bd 40 8b 48 bc 7a 6d 1a bd
       -0.005577275 -0.034251057 -0.012240231 -0.03770206
000040 37 0e b1 bc 71 bf 08 bd f5 8e 7c bc 90 99 b8 bb
       -0.021613223 -0.033385698 -0.015414943 -0.0056335405
000050 db ae 18 bd 71 32 ff bc e1 8a c8 bc a4 10 02 bd
       -0.03727613 -0.031151982 -0.024480285 -0.03175415
000060 54 28 2c 3c f9 23 91 bc 04 12 cd bc fc 93 b6 bc
       0.010507662 -0.017717348 -0.025033005 -0.022287361
000070 c9 55 f9 bc 07 89 e1 bc 6d 7d 18 bd 60 e0 f7 bb
       -0.030436413 -0.02753116 -0.03722899 -0.0075645894

module.layer2.2.running_mean f4 [32]
000000 df c4 ee 3c b9 a4 74 3d 64 c2 9e 3d 0e a7 8a 3c
       0.02914661 0.059727404 0.07751921 0.016925361
000010 3d 2c 05 3d ee 65 a1 3d c6 9b 1b 3d a1 c0 ff 3c
       0.032512892 0.0788077 0.037990354 0.031219782
000020 b6 2b 89 3d c2 10 15 3d b4 d7 f0 3d 57 25 c8 3d
       0.0669779 0.036392935 0.11759892 0.09772747
000030 58 28 40 3d 2f 7c 00 3d 25 d5 f9 3d 08 4e fd 3c
       0.046913475 0.03136843 0.12198857 0.030920997
000040 7b b5 1d 3d 88 c1 8c 3d 2c e3 de 3c e7 0c 8f 3c
       0.03850315 0.06872851 0.027207933 0.017462207
000050 19 8c 36 3d 71 d6 18 3e 69 7b 25 3d 46 d5 89 3d
       0.0445672 0.14925553 0.040400896 0.06730132
000060 a5 23 f9 3d c2 bb ab 3c 64 7a 2b 3d 31 be 02 3d
       0.12165002 0.020963553 0.041864768 0.031919662
000070 6e b9 98 3d c7 fe 2e 3d ee 00 8f 3d ec 5c 96 3c
       0.07457243 0.042723443 0.06982599 0.018354855

module.layer2.2.running_var f4 [32]
000000 d4 ba 8e 3c 47 f1 f4 3c ae ba 20 3d f1 70 ef 3b
       0.017423071 0.029900206 0.03924053 0.007307165
000010 c5 90 72 3c 29 e9 55 3d d8 5b 97 3c dc 55 63 3c
       0.014805024 0.052224312 0.018476412 0.013875451
000020 dd 55 06 3d 1a 84 76 3c 8e a4 8d 3d 45 7c 65 3d
       0.03279673 0.015046144 0.06916152 0.056026716
000030 1b 62 bd 3c 91 aa 87 3c e4 8e 9a 3d 89 41 92 3c
       0.02311807 0.016560825 0.075467855 0.017853515
000040 fc 48 9c 3c 8c 55 25 3d 5e 07 59 3c 1c 42 ef 3b
       0.01907777 0.040364787 0.013246385 0.007301582
000050 d4 c9 d1 3c dc 31 a7 3d f2 73 87 3c c3 41 0b 3d
       0.025608934 0.08163807 0.01653478 0.033998262
000060 3f f0 69 3d 90 b4 21 3c 7e 14 a1 3c 48 d5 7e 3c
       0.057113882 0.00986971 0.019663092 0.01555378
000070 77 f6 04 3d 7e 07 da 3c be 1f 23 3d 5d ec 02 3c
       0.03246161 0.0266149 0.039825194 0.007990924

module.fc.weight f4 [10, 1568]
000000 8f 49 0f 3c 13 7e bc bc 62 57 31 bc 31 5c d2 3c
       0.008745565 -0.023009336 -0.010824056 0.025678726
000010 29 b8 80 3b da 5f f1 3c 1d 60 e6 bb 0d c9 e6 3b
       0.0039282036 0.02946465 -0.0070305006 0.00704301
000020 1e ff 36 3c aa 54 06 3d f2 8a 9e 3c 1f 96 d3 bc
       0.011169223 0.032795586 0.019353364 -0.02582842
000030 e2 16 1d bc 21 7c 90 38 68 54 f8 ba d9 24 59 3c
       -0.009587975 6.889576e-05 -0.0018946053 0.013253414
000040 68 76 f8 3c 3e cd 32 bd cf 89 86 3c 75 33 27 3d
       0.030329898 -0.043652765 0.016423134 0.040820558
000050 e8 47 9e 3c b8 89 c3 3c e0 db 85 3b 98 f0 82 bc
       0.019321397 0.02386938 0.004085049 -0.015983865
000060 a8 e3 ba bc 09 83 15 3d 6b 3e 1c 3d 43 20 8d 3c
       -0.022813633 0.036501918 0.038145464 0.017227298
000070 46 f8 d0 3b 9e ac 28 3d 0a 0c 67 bc 6b 45 20 3c
       0.0063772528 0.041180246 -0.014101991 0.0097821755
000080 4d 4f 5f 3d 7d f2 c8 3c 88 ae 89 bc 36 36 37 3d
       0.054518986 0.02452969 -0.016806856 0.044729434
000090 28 9b 7d 3d ee cd e7 3c 63 91 a9 bc 0f 23 b1 3c
       0.061915547 0.028296437 -0.020699209 0.021623163
0000a0 3f 5e 03 bd c8 57 53 bc de ed 23 3d 94 d1 c9 3c
       -0.032072302 -0.012899347 0.04002177 0.024636067
0000b0 95 33 1d 3d 94 e1 13 bd 80 bf da bc 7c c5 83 3c
       0.03837927 -0.0361038 -0.026702642 0.016085379
0000c0 9b cb 06 bd fb 92 ac bb 79 1b bd bc 36 bc 98 bc
       -0.032909017 -0.005266545 -0.023084389 -0.018644433
0000d0 0b d8 4b bd 5a b0 03 bd 5c 77 d5 bc ed 1b 4f 3c
       -0.04976658 -0.032150604 -0.026057892 0.012640935
0000e0 7d e3 e0 bb ac c9 93 bc 4f db b2 bb 80 a6 26 bc
       -0.006863056 -0.0180405 -0.0054582725 -0.010171533
0000f0 3c ec 0c bb 23 62 45 bc 5e 6c 52 3c f0 dd 50 bc
       -0.0021503111 -0.012047323 0.01284322 -0.0127482265
000100 2c 41 b0 bc 09 2b 70 3a 16 60 d9 bb 76 75 9d bb
       -0.021515451 0.0009161686 -0.006633769 -0.004805262
000110 8a 44 31 3c 29 a4 88 bb 6a c4 59 3b 59 43 87 bc
       0.010819564 -0.00416996 0.0033228644 -0.016511606
000120 58 17 05 bd 2f c5 95 bc e4 e7 c4 bb 39 48 d8 bc
       -0.032492965 -0.018282501 -0.006009089 -0.026401626
000130 7e 73 18 bd bb b9 3b bb 29 30 4d bd b6 dd ec 3c
       -0.037219517 -0.002864464 -0.050094757 0.028914314
000140 d7 2d 38 3c e1 61 88 bc 20 a0 0d 3c 17 3d 72 bc
       0.011241398 -0.016648235 0.008644134 -0.014785073
000150 43 be f1 3b 84 d1 cb bc 97 c5 19 bc 5c 5a ea bc
       0.0073774173 -0.024880178 -0.009385488 -0.02860754
000160 9a e8 9f bc 08 32 c7 bb 6d 0f 01 bd 98 d5 8e bc
       -0.019520093 -0.0060789622 -0.03150885 -0.017435834
000170 09 21 ce 3b 35 e6 28 3d 96 f6 4d 3d d8 b8 9b 3c
       0.006290559 0.041235168 0.05028399 0.019009039
000180 56 4c 9f 3b 83 1a 66 3c 9a e7 58 bc 05 a8 4f bc
       0.004861395 0.014044407 -0.013238812 -0.012674336
000190 6d ae 31 bc 2b 0d 15 bb ec e7 a1 3c 35 10 ff 3a
       -0.010844809 -0.0022743444 0.01976391 0.0019459786
0001a0 cc e8 28 3b 88 14 01 bd 9f 5b e5 bc ec a7 6e bc
       0.0025773523 -0.03151372 -0.02799779 -0.014566403
0001b0 93 b1 0c bd f4 ad 5f 3c 49 10 55 3a 6d ab 6d bc
       -0.034349035 0.0136523135 0.0008127732 -0.014506203
0001c0 da c5 94 bb f8 a1 59 bb 1f cf 06 bd a0 68 40 bc
       -0.0045401873 -0.0033208113 -0.03291237 -0.011743695
0001d0 27 8a 00 bd d8 b7 38 bd a2 9e e2 bc 9c 2a 44 bd
       -0.031381752 -0.045097202 -0.027663533 -0.047892198
0001e0 ec 0d 37 bd 60 ec 18 3c c8 17 b9 3b dc f6 49 3d
       -0.04469101 0.0093337 0.005648587 0.04930769
0001f0 57 20 02 bc 84 93 a7 bd c2 20 8b bd 7b e3 c9 bc
       -0.007942281 -0.08182433 -0.067933574 -0.024644604
000200 de f7 d1 3c e0 ca 1b bc c6 d1 5c 3d 96 a1 e6 3c
       0.025630888 -0.009508818 0.053910993 0.028153222
000210 21 3e 06 bc 15 1c 5f bd 30 ef 8f 3b cd ae ad 3b
       -0.008193524 -0.05447014 0.004392527 0.005300379
000220 b5 23 df bc b6 1a 93 bc 60 12 ff 3b eb 57 ee 3c
       -0.027238706 -0.017957073 0.007784173 0.029094657
000230 a8 0d c0 bc 4f 66 8d bc a7 e2 cc bc b8 dc 20 bd
       -0.023444012 -0.017260699 -0.02501042 -0.039272994
000240 12 c9 08 bd 2f a1 ae bc f1 a1 85 3c 2e e5 06 3c
       -0.03339488 -0.021317093 0.016312571 0.008233352
000250 c4 2e 6b bd df d6 a1 bc c8 86 bb 3c 1f 17 ba 3c
       -0.057417646 -0.019755779 0.022891417 0.022716103
000260 27 4c a3 3a ba ed 1b bc 44 e9 96 bc c9 b1 59 bb
       0.0012458608 -0.009517128 -0.018421777 -0.003321754
000270 b7 36 90 bc 65 7c a8 bc 6f 31 ca 3c d9 22 1b 3c
       -0.017604215 -0.020567128 0.024681775 0.009468758
000280 e5 fb 6f bc cc 29 37 bc bd b2 24 3c a7 0b ed 3c
       -0.014647459 -0.011179399 0.01005238 0.02893622
000290 48 8a 51 bc d5 a4 00 3b f3 a9 be bc e0 cd f9 bc
       -0.0127893165 0.0019629498 -0.023274397 -0.030493677
0002a0 67 e8 d6 bc 4d 23 3f bd 7e c7 d3 3a 70 dc 44 3d
       -0.026233865 -0.046664525 0.0016157476 0.048061788
0002b0 7a e6 d3 bb 97 2b 6b bd c9 53 f3 bc 52 ae 45 bd
       -0.006466684 -0.057414617 -0.029703038 -0.048261948
0002c0 5c 9e 8a bd c8 06 17 bc 17 53 1d 3c bb d4 89 bb
       -0.06768486 -0.009217925 0.00960233 -0.0042062677
0002d0 e6 c5 c4 bb 1d 60 29 bd 68 2f 56 bd c0 ec 6c bd
       -0.0060050366 -0.041351426 -0.052291304 -0.05784297
0002e0 66 e3 c3 bb 95 97 0e 3d 08 2b 5e 3d bb fa c3 3c
       -0.0059780357 0.03481253 0.054240257 0.023923269
0002f0 05 55 bf bb 28 83 39 bd 6c 60 b4 3c 43 ae c1 bb
       -0.0058389925 -0.045291096 0.022018634 -0.005910666
000300 ff ed a1 bc 0b 0e 3f bc 00 b1 c8 3c 98 fa b0 bb
       -0.019766806 -0.011661063 0.024498463 -0.005400967
000310 a2 4b 66 bb 9f 3a 25 bd f3 a0 90 ba fc 28 ef 3b
       -0.0035140296 -0.04033911 -0.0011034295 0.007298587
000320 e8 01 96 3c d4 d6 0b bd 16 66 72 3c 43 95 24 3c
       0.018311456 -0.034140423 0.014794847 0.010045352
000330 03 c9 27 ba dd f8 0b bd 43 08 7c 3c c4 fc 08 bb
       -0.00064004975 -0.03417288 0.015382829 -0.0020902613
000340 d5 3f 66 bc ee 83 b9 3b 10 bf b0 3c 98 73 94 3d
       -0.014053305 0.005661479 0.02157548 0.0724861
000350 45 f6 8e 3c b6 d9 be bc 94 12 99 3c 87 ea b2 3c
       0.017451415 -0.023297172 0.018685617 0.021840347
000360 2c 80 dd 3c 92 15 90 3c b7 d7 12 3d f9 40 d5 bb
       0.027038656 0.01758841 0.035850253 -0.0065079895
000370 76 52 35 3c a0 46 d6 bc 7b 39 3d 3d 0e 9a 1c 3d
       0.0110670235 -0.026156723 0.046197396 0.038232855
000380 a5 2e db 39 64 2f 32 3b 8a ab cf 3c 2b 18 00 3d
       0.00041805688 0.0027188892 0.02535035 0.03127305
000390 cc ed ac 3b 43 09 88 bc be 91 c8 3c af 24 ca bc
       0.005277371 -0.016605979 0.024483558 -0.024675695
0003a0 37 39 a5 bc 55 e6 02 3d 4c bb 8f bc e6 2c b8 bc
       -0.020168884 0.031957943 -0.017545365 -0.022482347
0003b0 d2 4f 55 bd 76 ec a1 bb 7b 9c 8e bd 2d 4b 1b bd
       -0.052078076 -0.0049415184 -0.0696344 -0.03791349
0003c0 ab 25 2d bc a8 15 42 bd 19 55 00 bd 10 1c 30 bd
       -0.010568063 -0.047383934 -0.031331155 -0.042995512
0003d0 85 27 4f bc 7f e3 aa bc 29 d3 45 3b 3a 76 d1 3c
       -0.0126436995 -0.020860432 0.0030185676 0.02556907
0003e0 f8 ad 4f bb ef cf 01 3d 10 f0 9d 3c 0a 4a c1 3b
       -0.0031689387 0.03169244 0.01927951 0.0058987187
0003f0 2b 92 e1 bb 50 5b 99 bc 62 12 9f bc 88 92 31 3c
       -0.0068838797 -0.018720299 -0.019417945 0.010838158

module.fc.bias f4 [10]
000000 bb f0 df bc 06 bc 40 3d cb 27 61 3b 43 c8 d7 bc
       -0.027336469 0.047054313 0.0034355994 -0.02634061
000010 6c 0e 99 bb 6b 36 1c 3c 83 12 43 3b 44 e8 fc bb
       -0.0046709087 0.009534459 0.0029765673 -0.007718118
000020 9d a7 85 3a 64 92 1c 3c
       0.0010197047 0.009556387
