experiments/autoencoder/runs/checkpoints/checkpoint.pth.tar (torch_old, 119492 bytes, 14 tensors)

module.layer1.0.weight f4 [16, 1, 5, 5]
0	0xbc2bcd20	-0.010485917
1	0x3dd83045	0.10556082
2	0xbe19fffd	-0.15039058
3	0xbdbfa411	-0.09357465
4	0xbca2eaea	-0.019887406
5	0x3c7bf026	0.01537708
6	0xbd49d444	-0.049274698
7	0x3df72224	0.12067059
8	0xbd1d8d86	-0.038465045
9	0x3d6f33c2	0.05839897
10	0xbd9fe6a2	-0.078076616
11	0xbdb32f9d	-0.08749316
12	0xbe6f8368	-0.23389971
13	0xbe26699b	-0.16251223
14	0xbd9e099e	-0.07716678
15	0x3cbfd997	0.023419185
16	0x3d93cabd	0.07216404
17	0x3e097a23	0.13425498
18	0xbdd01e3d	-0.101620175
19	0xbd491e25	-0.049101014
20	0x3dbb5c0b	0.09148415
21	0x3e3a7030	0.18206859
22	0x3cabf7cb	0.02099218
23	0x3e49ab1d	0.19694181
24	0x3cc0b6d4	0.02352468
25	0x3d4d2420	0.05008328
26	0x3e2d884a	0.16946521
27	0xbe17dacb	-0.14829557
28	0xbdfa7f1e	-0.12231277
29	0xbd9340aa	-0.07190068
30	0xbde4ca3e	-0.11171387
31	0x3e0a0ad5	0.13480695
32	0xbe14f624	-0.1454702
33	0xbe074058	-0.13208139
34	0xbe578a69	-0.21048893
35	0xbe7e5dab	-0.24840419
36	0xbe421d8c	-0.18956584
37	0x3df85c67	0.12126999
38	0x3d3c10f9	0.045914624
39	0x3c3f5b8a	0.011679539
40	0xbb9c4652	-0.004769125
41	0xbe13224d	-0.14368553
42	0xbba509dc	-0.0050365757
43	0xbe337315	-0.17524369
44	0xbe10262c	-0.14077061
45	0xbde745c5	-0.11292604
46	0x3def0583	0.11670973
47	0x3df24bb6	0.11830847
48	0xbda85c95	-0.082207836
49	0x3b5fef62	0.0034169783
50	0x3e0cdbc3	0.13755707
51	0x3e33b322	0.17548802
52	0x3d5ee527	0.054417755
53	0x3bc7c009	0.0060958904
54	0x3de780e5	0.113038816
55	0xbdcd9f44	-0.10040143
56	0x3d13690b	0.03598885
57	0xbdf81e2b	-0.12115129
58	0xbdc54605	-0.09632496
59	0xbdc3e4e6	-0.09565143
60	0x3d8f7f37	0.07006686
61	0x3d6d352c	0.057912037
62	0xbdc325ac	-0.0952867
63	0x3dd850db	0.10562297
64	0x3dbdf7c9	0.09275777
65	0xbdc6fb13	-0.09715857
66	0xbd2234a4	-0.039600983
67	0x3d0d5d03	0.03451253
68	0x3ddf2d92	0.10897364
69	0x3e4394a7	0.19099675
70	0xbe7133c3	-0.23554902
71	0xbe05dc50	-0.13072324
72	0x3d12fbcc	0.035884663
73	0x3e2544df	0.16139553
74	0x3e2de920	0.16983461
75	0x3e1d8b14	0.15385085
76	0x3c297313	0.010342377
77	0xbe2cef51	-0.16888167
78	0x3cf8a38e	0.030351426
79	0xbe0706bd	-0.13186164
80	0xbe2ed428	-0.17073119
81	0x3e36c361	0.17847969
82	0x3e271ebd	0.1632032
83	0xbe434fd6	-0.19073424
84	0xbc90c392	-0.01767138
85	0xbce03d6e	-0.027373042
86	0xbc1a94da	-0.009434903
87	0xbd8e708a	-0.06955059
88	0x3d47e844	0.04880549
89	0xbe5c1ad6	-0.21494612
90	0x3d88ea47	0.0668531
91	0x3dd4b41e	0.10385917
92	0x3e023a58	0.12717569
93	0x3c079ba6	0.008276856
94	0xbe991455	-0.29898325
95	0xbdb488fc	-0.0881519
96	0x3e0838ad	0.1330287
97	0x3d1c9603	0.038229
98	0xbe436728	-0.1908232
99	0xbe2d3950	-0.16916394
100	0x3e30d6a6	0.17269382
101	0x3dcbf81f	0.09959435
102	0xbe15d735	-0.14632876
103	0xbe1b742b	-0.15181033
104	0xbe58ec88	-0.2118398
105	0xbd199bb2	-0.037502
106	0xbe5db872	-0.21652392
107	0xbe5a811b	-0.21338312
108	0xbd1f4472	-0.038883634
109	0x3d075369	0.03303853
110	0xbe1090fa	-0.14117804
111	0x3d57fe19	0.05273256
112	0xbdf642f3	-0.12024488
113	0x3e2acd4d	0.16679879
114	0x3e106107	0.14099513
115	0xbe4cabb5	-0.19987376
116	0xbd4435df	-0.047902938
117	0x3c8c3d17	0.017118974
118	0x3cd7df2f	0.02635154
119	0x3d35ecc2	0.044415243
120	0x3d6ccc33	0.057811927
121	0x3c25cfca	0.010120342
122	0xbdbdcb10	-0.09267247
123	0x3daba1c3	0.08380463
124	0xbe2009f4	-0.15628797
125	0xbd913836	-0.070907995
126	0xbcfab90a	-0.030605812
127	0xbdbfdfa7	-0.0936883
128	0xbdaf99f3	-0.08574285
129	0xbe3b4a3a	-0.18290034
130	0xbbc04568	-0.005867649
131	0xbcc6685b	-0.024219682
132	0xbe4a155a	-0.19734707
133	0xbd01eb0b	-0.031718295
134	0x3e128b5f	0.14310978
135	0xbbab1c12	-0.005221852
136	0xbd840250	-0.064457536
137	0xbd650d8c	-0.055921122
138	0x3d5bec73	0.053692292
139	0x3e0db1b4	0.1383732
140	0x3e5c6059	0.21521129
141	0x3e07f8da	0.13278523
142	0x3e3d4345	0.18482693
143	0x3a581707	0.00082431774
144	0xbe1f00ee	-0.15527698
145	0xbe250f0d	-0.16119023
146	0x3dbe9728	0.093061745
147	0xbcab7b3e	-0.02093279
148	0xbd717c10	-0.058956206
149	0xbdc68dc3	-0.09695008
150	0xbdda953d	-0.10672996
151	0xbdb4f4be	-0.08835743
152	0x3bd2ead7	0.0064366865
153	0x3e1eacc6	0.15495595
154	0x3e327a8c	0.1742956
155	0xbe9965f4	-0.29960597
156	0x3bec674b	0.007214462
157	0xbe617a3f	-0.2201929
158	0xbc50b69d	-0.012738851
159	0xbc154c24	-0.009112392
160	0xbd676843	-0.056495916
161	0xbdfaa9a3	-0.12239387
162	0xbeab0723	-0.33403882
163	0xbe986bb6	-0.29769677
164	0xbd9ae54c	-0.07563266
165	0x3c9e31b6	0.019310813
166	0xbd38708f	-0.04502922
167	0x3d30ce29	0.04316536
168	0xbe689b0a	-0.22715393
169	0xbd97b338	-0.0740723
170	0x3e568656	0.20949683
171	0xbd312e62	-0.043257125
172	0x3e2d816f	0.16943906
173	0x3dafc5f4	0.085826784
174	0xbe117a18	-0.14206731
175	0x3dddf237	0.108372144
176	0xbd6f44ef	-0.05841535
177	0xbdce3999	-0.1006958
178	0x3e2b3209	0.16718306
179	0xbdec0d5f	-0.11525988
180	0xbbcd2c8f	-0.0062614153
181	0xbd2f4a88	-0.042795688
182	0x3e290d59	0.16508998
183	0x3db532cf	0.088475816
184	0x3e136128	0.14392531
185	0x3d2a2c9d	0.041546453
186	0xbce40d1d	-0.027838284
187	0xbc7922d5	-0.0152060585
188	0xbe132b1a	-0.1437191
189	0x3df57059	0.11984319
190	0x3dfdb4c4	0.12387994
191	0x3e0a5637	0.13509451
192	0xbe1505c7	-0.14552985
193	0xbc297007	-0.010341651
194	0xbe2496bf	-0.1607313
195	0xbe06b897	-0.13156353
196	0xbe1eb38f	-0.15498184
197	0x3c69853b	0.014252956
198	0xbe1f59e8	-0.1556164
199	0xbc558e62	-0.013034435
200	0x3d24b561	0.04021204
201	0x3e120ce9	0.14262737
202	0xbe192fbe	-0.14959618
203	0xbe1cf3d2	-0.15327385
204	0xbe372775	-0.17886145
205	0x3e3197b5	0.17343028
206	0xbd97a259	-0.07404012
207	0x3e27c97d	0.16385455
208	0x3d4aa3f1	0.049472753
209	0xbcfbdea5	-0.030745814
210	0xbc0dee10	-0.008662716
211	0xbd3a9970	-0.045556486
212	0x3cb495f4	0.02204416
213	0xbd597657	-0.053091373
214	0xbd1a2e8c	-0.037642047
215	0x3af07f54	0.0018348494
216	0xbe29dc1c	-0.16587871
217	0xbde474fe	-0.11155127
218	0x3e326c0d	0.1742403
219	0xbe112f11	-0.1417811
220	0xbcb2d443	-0.02182973
221	0x3e3b0432	0.18263319
222	0x3d6f3f34	0.058409885
223	0x3c9c6a99	0.019093798
224	0xbdfb8546	-0.12281279
225	0x3dae36b9	0.08506531
226	0xbe0b4014	-0.13598663
227	0xbd6ff1c1	-0.058580164
228	0xbdb50b00	-0.08839989
229	0xbd8291a5	-0.06375436
230	0x3c9cb1a8	0.019127682
231	0x3e3680fd	0.17822643
232	0x3d05d781	0.032676224
233	0x3e326f71	0.17425324
234	0x3de15444	0.110024005
235	0xbe0bb8c9	-0.13644709
236	0x3dbb3413	0.09140792
237	0xbe399e8d	-0.18126889
238	0xbe193546	-0.14961728
239	0x3caf989b	0.021435073
240	0x3d08723d	0.03331207
241	0x3e1e0927	0.15433179
242	0xbdbf111a	-0.09329434
243	0xbd4419fe	-0.04787635
244	0x3d8bf81b	0.06834432
245	0xbe6e8bba	-0.23295489
246	0x3e296bee	0.16545078
247	0xbe1a5b93	-0.15073995
248	0xbd1a186d	-0.03762095
249	0xbd7b4955	-0.06134923
250	0xbd404ad8	-0.046946377
251	0x3d66ab79	0.056315873
252	0x3e254e6c	0.16143197
253	0xbd695fb3	-0.05697603
254	0xbdd76a9d	-0.10518382
255	0xbd28c16a	-0.04120008

module.layer1.0.bias f4 [16]
0	0x3dd09a55	0.101856865
1	0x3bd8a32b	0.006611248
2	0xbe1f9cf7	-0.15587221
3	0x3e03f8fa	0.12887946
4	0x3d1ff149	0.039048467
5	0xbe0ed258	-0.13947427
6	0x3db983ac	0.090583175
7	0x3e224231	0.15845563
8	0xbd8695ea	-0.065715626
9	0x3d177ffd	0.036987294
10	0xbe116e98	-0.14202344
11	0xbc886d31	-0.016653629
12	0x3e0f7821	0.1401067
13	0x3d8e4ffd	0.0694885
14	0xbdc479de	-0.09593557
15	0xbe3a9403	-0.18220524

module.layer1.2.weight f4 [16]
0	0x3ec1c547	0.37845823
1	0x3ece00b6	0.40234917
2	0x3eef6917	0.46759865
3	0x3f69301a	0.9108902
4	0x3f1de9c3	0.6168482
5	0x3e9299dd	0.28633013
6	0x3f15c118	0.5849776
7	0x3f3ac981	0.7296372
8	0x3f2b6b4d	0.66960603
9	0x3dec955b	0.11551925
10	0x3eee4be7	0.46542284
11	0x3e541fd8	0.20715272
12	0x3e78684f	0.2425854
13	0x3f0adf65	0.54247123
14	0x3e75c8c6	0.2400237
15	0x3f27f01b	0.65600747

module.layer1.2.bias f4 [16]
0	0x3dee2eb0	0.11629999
1	0xbc1a611a	-0.009422565
2	0x3de40e81	0.11135579
3	0x3dcfe034	0.10150185
4	0x3d8fa0a9	0.07013065
5	0x3da141e1	0.078738935
6	0x3bb2dd89	0.005458538
7	0x3d5ca7ef	0.05387109
8	0x3dad5318	0.084631145
9	0x3d14e0c7	0.036347177
10	0x3d15cfe0	0.0365752
11	0x3d412d1b	0.047162157
12	0x3d0ff99f	0.035150167
13	0x3dd8d4b3	0.10587444
14	0xbcaec690	-0.021334916
15	0x3e0866e2	0.13320497

module.layer1.2.running_mean f4 [16]
0	0x3de573a7	0.112036996
1	0x3bcd50df	0.006265744
2	0x3d60cdbe	0.05488371
3	0x3de50afe	0.11183737
4	0x3d11261e	0.035436742
5	0x3bd68192	0.0065462077
6	0x3d94e346	0.072699115
7	0x3e1eeac3	0.15519242
8	0x3c2475e8	0.010037877
9	0x3d0a7e9b	0.033812147
10	0x3b831341	0.004000098
11	0x3bbf4fdf	0.005838379
12	0x3e0b58e2	0.13608125
13	0x3e86c793	0.26324138
14	0x3bb5841e	0.0055394312
15	0x3d3b88ee	0.045784883

module.layer1.2.running_var f4 [16]
0	0x3c213902	0.009840252
1	0x395a2a1c	0.00020805787
2	0x3c9ff869	0.01952763
3	0x3bf38200	0.0074312687
4	0x3af59e89	0.0018739264
5	0x3aa73d97	0.0012759444
6	0x3b93f3b3	0.004515135
7	0x3c154393	0.009110349
8	0x3abc6f87	0.00143765
9	0x3ab02357	0.0013438266
10	0x3a748a94	0.0009328511
11	0x3a5d5824	0.0008443615
12	0x3c0a32bd	0.0084349485
13	0x3e086796	0.13320765
14	0x3a447909	0.0007494842
15	0x3c9609db	0.018315246

module.layer2.0.weight f4 [32, 16, 5, 5]
0	0x3c04c898	0.008104466
1	0xbd04679d	-0.032325376
2	0xbd5cafb7	-0.053878512
3	0xbd1802f8	-0.037112206
4	0x3d5e718e	0.054307513
5	0xba4da09a	-0.0007844061
6	0x3d8b6969	0.06807215
7	0xbcd32edf	-0.025779186
8	0xbcf4b90c	-0.029873393
9	0xbc05e32f	-0.008171841
10	0xbc141572	-0.009038316
11	0x3d44fde1	0.04809368
12	0xbd7162d3	-0.058932137
13	0x3ab03a52	0.0013445115
14	0xbcc957c1	-0.024577977
15	0xb9203400	-0.0001527816
16	0xbbf43aca	-0.0074532973
17	0xbdc5974e	-0.09648
18	0x3aedddc7	0.001814776
19	0xb98fa4dc	-0.00027397915
20	0x3d38c3dc	0.04510866
21	0x3cbb79b6	0.022885185
22	0xbd81bdf8	-0.06335062
23	0x3c3f0624	0.011659179
24	0x3b70f3a0	0.0036766306
25	0x3d862285	0.06549553
26	0xbd4a96e5	-0.04946031
27	0xb7ae8781	-2.0805515e-05
28	0xbd848e34	-0.064724356
29	0xbb05f2dd	-0.0020438947
30	0x3d210675	0.0393128
31	0xbd78ca1c	-0.06073962
32	0xbccab5ae	-0.024744835
33	0x3d0a4c61	0.033764247
34	0x3d615908	0.055016547
35	0x3c82903b	0.015937915
36	0xbd169d8e	-0.03677135
37	0xbcb92972	-0.02260277
38	0x3cc8aecf	0.024497418
39	0x3d59bb7a	0.053157307
40	0x3d0322ab	0.032015484
41	0x3bb5e9fb	0.0055515743
42	0xbc371689	-0.011174806
43	0xbd14cfc6	-0.03633096
44	0xbd6cb2d0	-0.057787716
45	0x3d504979	0.05085132
46	0xbc51c740	-0.012803853
47	0x3d4d4f05	0.050124187
48	0xbd4969d3	-0.049173187
49	0xbd2029b6	-0.03910228
50	0xbd9f407b	-0.077759705
51	0x3b9f4d5a	0.004861516
52	0xbc156ea1	-0.009120614
53	0x3d1c111e	0.03810226
54	0x3d090b92	0.0334583
55	0xbc5b5aa9	-0.013388314
56	0xbc48c5c9	-0.012254187
57	0xbd066286	-0.032808803
58	0xbccb1ff7	-0.024795515
59	0x3c31da9b	0.010855342
60	0xbcf09ee9	-0.02937265
61	0xbd76bea5	-0.060240407
62	0x3d0a8c3a	0.033825137
63	0xbc0cc1a6	-0.008591091
64	0xbd89eff6	-0.06735222
65	0xbda6c11b	-0.08142301
66	0x3d021c35	0.03176518
67	0x3d1bcc88	0.038036853
68	0xbd55ebe8	-0.05222693
69	0xbc6b1f0f	-0.014350667
70	0x3bfe5f03	0.007762791
71	0x3d2df425	0.042469162
72	0x3d67ae21	0.056562547
73	0xbd8e66ce	-0.06953202
74	0xbbd54f07	-0.006509665
75	0x3d6c7ccb	0.0577362
76	0x3ca15215	0.01969246
77	0x3cdc0e2f	0.026862232
78	0x3cb8f8cf	0.022579579
79	0x3da9c5a5	0.08289651
80	0x3c8508cb	0.016239544
81	0xbc9fdb40	-0.019513726
82	0x3b40c716	0.002941554
83	0x3d208475	0.03918882
84	0x3b1a99c8	0.0023590196
85	0x3c646d81	0.013942123
86	0xbb08367c	-0.0020784428
87	0xbcdad216	-0.026711505
88	0x3c34f59f	0.011044889
89	0xbb77adf1	-0.0037792886
90	0x3cdbfbcc	0.026853465
91	0xbd591d0e	-0.053006224
92	0xbd3cd63e	-0.046102755
93	0xbcdc016b	-0.026856145
94	0x3d411946	0.047143243
95	0xbc99f893	-0.018795287
96	0xbc5d3983	-0.013502481
97	0xbc7691c2	-0.0150494
98	0x3d3fd786	0.0468364
99	0x3d1217db	0.03566728
100	0xbd8ce896	-0.068803
101	0xbdbc71d3	-0.09201398
102	0xbe1697e3	-0.14706378
103	0xbd81df71	-0.06341446
104	0xbcfa5f10	-0.030562907
105	0xbd5df86e	-0.054192
106	0xbd329e13	-0.043607783
107	0xbd79a6ed	-0.06095021
108	0xbdc885e5	-0.09791163
109	0xbbf50135	-0.0074769505
110	0xbd4479a4	-0.047967568
111	0xbd6c38e4	-0.057671443
112	0xbcb11102	-0.021614555
113	0x3d0167ef	0.03159326
114	0xbd97ad64	-0.074061185
115	0xbcf5758a	-0.029963274
116	0xbddd346a	-0.10801013
117	0x3d1b5ab5	0.0379283
118	0xbd09d016	-0.03364571
119	0xbdc59a78	-0.09648603
120	0x3b0a7a51	0.0021130035
121	0xbd1fc7c3	-0.039008867
122	0x3d3e3105	0.046433467
123	0xbd1255c5	-0.035726327
124	0xbcb393db	-0.021921089
125	0xbdeec5f4	-0.1165885
126	0xbd1e98d4	-0.038719967
127	0xbda5448b	-0.08069714
128	0xbd62b02f	-0.055343803
129	0xbdc5352a	-0.09629281
130	0xbc8775bd	-0.016535634
131	0x3bb29f8b	0.005451148
132	0xbd6868d4	-0.056740597
133	0x3b214afb	0.0024611342
134	0xbcdf3277	-0.027245743
135	0xbcd05830	-0.025432676
136	0x3cb5e6bb	0.022204747
137	0xbc2ddf56	-0.0106123295
138	0xbba42fe3	-0.0050105914
139	0x3bef149f	0.0072961594
140	0xbdd810c7	-0.10550075
141	0xbdae4a30	-0.08510244
142	0xbd5ab57a	-0.053395726
143	0x3c185c1b	0.009299303
144	0xbd92f6e1	-0.07175995
145	0xbd2eb125	-0.042649407
146	0x3d5a98f5	0.053368527
147	0x3dcb590d	0.099290945
148	0xbd0fa459	-0.035068844
149	0xbd8c1ec5	-0.06841806
150	0xbd4519a6	-0.048120163
151	0x3cada2c1	0.021195771
152	0x3d031596	0.032003008
153	0xbd430584	-0.047612682
154	0x3c88d402	0.016702656
155	0x3cb5e765	0.022205064
156	0x3cb45d0d	0.022017026
157	0x3d702f86	0.058639072
158	0x3cabc541	0.020968081
159	0xbd4d5a3f	-0.050134894
160	0xbd5bf7d9	-0.053703163
161	0x3d410b0b	0.047129672
162	0xbcab2852	-0.02089325
163	0x3a7d8d0e	0.0009672203
164	0xbd66e256	-0.056368195
165	0x3d430cb2	0.04761953
166	0x3d251395	0.040301878
167	0xbc4093e5	-0.011754011
168	0xbdcbf612	-0.099590436
169	0xbd36ea09	-0.044656787
170	0xbce39418	-0.027780578
171	0x3c8b7228	0.017022207
172	0xbd8ad555	-0.06778971
173	0xbd9d1121	-0.07669283
174	0x3d08a4d6	0.033360325
175	0xbd22bec9	-0.03973273
176	0xbcf78d62	-0.030218784
177	0xbc51b2d8	-0.012798987
178	0xbd29741c	-0.041370496
179	0xbd81602a	-0.0631717
180	0xbc3c8cde	-0.011508195
181	0xbd75ffd0	-0.060058415
182	0xbd2193f8	-0.039447755
183	0x3b8ebaca	0.004355763
184	0xbca776db	-0.020442417
185	0x3c4831fc	0.012218948
186	0x3ce6f3e8	0.028192475
187	0xbd35ec77	-0.044414964
188	0xbd63ac47	-0.05558422
189	0x3d66d931	0.056359474
190	0x3c99c6ca	0.018771548
191	0xbd03306c	-0.0320286
192	0xbd75271f	-0.059851762
193	0xbd95c124	-0.07312229
194	0x3d9782c9	0.07397992
195	0x3b9761b4	0.0046198014
196	0xbd5319f8	-0.051538438
197	0xbd90dcd5	-0.0707337
198	0x3c917bf8	0.017759308
199	0x3d00dce5	0.03146066
200	0x3cdf1450	0.027231365
201	0xbd70fd4c	-0.058835313
202	0x3d1365ce	0.03598576
203	0x3b22eaee	0.0024859267
204	0x3cbd195a	0.023083378
205	0xbc77e923	-0.015131268
206	0xbd62bc63	-0.05535544
207	0x3ac5e37c	0.0015097703
208	0x3cac7b39	0.02105485
209	0x3c3310ac	0.010929268
210	0x3be65124	0.0070287157
211	0x3c5a8da8	0.013339438
212	0xbd680eea	-0.05665485
213	0x3d757496	0.05992564
214	0xbcd3262e	-0.025775041
215	0x3d245dc9	0.040128503
216	0xbb97bce1	-0.0046306704
217	0xbd47e602	-0.048803337
218	0xbc9b28d3	-0.018940365
219	0xbbb88543	-0.0056311204
220	0x3d0cd6eb	0.03438465
221	0xbd015e6a	-0.03158418
222	0xbd56eb2f	-0.052470382
223	0xbd8416f9	-0.06449694
224	0x3bbcbbbf	0.0057596858
225	0x3c892d6a	0.016745288
226	0xbd17837b	-0.036990624
227	0xbcc2cc3e	-0.02377903
228	0xbd315614	-0.04329498
229	0x3c8d17e8	0.017223313
230	0x3ca0cf84	0.019630201
231	0xbd9a0c26	-0.075218484
232	0xbd9ef2e8	-0.077611744
233	0x3a749162	0.0009329525
234	0xbb8450b8	-0.0040379427
235	0x3d8f3c8a	0.06993969
236	0x3bba4620	0.005684629
237	0xbcaf8740	-0.021426797
238	0xbd4482bb	-0.047976237
239	0x3d7337c2	0.059379347
240	0x3c908464	0.017641254
241	0x3d18a958	0.037270874
242	0xbc0f1251	-0.008732394
243	0x3c572ca4	0.013133202
244	0x3cd8ff45	0.02648891
245	0x3a8f7d8e	0.0010947452
246	0xbc666bc8	-0.014063783
247	0xbd6ea2f1	-0.05826086
248	0x3cceedb8	0.025259838
249	0xbd15c088	-0.036560565
250	0xbcb4b18d	-0.022057319
251	0xbd3bdbf5	-0.045864064
252	0x3cf56f1f	0.029960213
253	0x3d811ded	0.06304536
254	0x3c8a7c4b	0.01690497
255	0xbc2e6c85	-0.01064599

module.layer2.0.bias f4 [32]
0	0xbc881af1	-0.01661441
1	0xbd7ccc3c	-0.06171821
2	0xbd9a6fb4	-0.07540837
3	0xbe0631e3	-0.13104968
4	0xbdc18978	-0.09450048
5	0xba9bed88	-0.0011896351
6	0xbd2d6780	-0.042335033
7	0xbce44a38	-0.027867422
8	0xbd1c1eea	-0.03811542
9	0xbd2320b7	-0.03982612
10	0xbc6d9a99	-0.014502191
11	0xbca70c8c	-0.020391725
12	0xbd1ebf90	-0.038756907
13	0xbdac0e38	-0.084011495
14	0xbba95bb8	-0.0051684044
15	0xbd3e06f5	-0.046393353
16	0xbceab400	-0.028650284
17	0xbdbe0082	-0.092774406
18	0xbd150d7e	-0.03638982
19	0xbcb79366	-0.022409152
20	0xbcd2ea5c	-0.025746517
21	0xbca88dd8	-0.020575449
22	0xbd979896	-0.0740215
23	0xbc807b56	-0.015683811
24	0xbc59bc25	-0.013289486
25	0xbde42daf	-0.11141526
26	0xbe0cb81d	-0.13742109
27	0xbc904be5	-0.017614314
28	0xbde45383	-0.11148741
29	0xbd984576	-0.074351236
30	0xbcdf1e40	-0.027236104
31	0xbda30778	-0.07960409

module.layer2.2.weight f4 [32]
0	0x3efd0e63	0.4942504
1	0x3f03a657	0.5142569
2	0x3f4a8f52	0.7912494
3	0x3ea93fc1	0.33056453
4	0x3f35ad09	0.70967156
5	0x3f3a4472	0.7276069
6	0x3f4bc1ab	0.7959239
7	0x3f2b6605	0.66952544
8	0x3f60af0f	0.8776712
9	0x3f1e8395	0.6191953
10	0x3f82cb8e	1.021837
11	0x3f6d1dbf	0.92623514
12	0x3ea740c0	0.32666588
13	0x3f11152a	0.5667292
14	0x3f7d88bc	0.99036765
15	0x3f1790ea	0.59205496
16	0x3ef52620	0.4788065
17	0x3f19001e	0.59765804
18	0x3f07ad9e	0.52999294
19	0x3ef8054f	0.4844155
20	0x3f443db9	0.7665668
21	0x3f80df39	1.0068122
22	0x3f33ee86	0.7028583
23	0x3f681284	0.9065325
24	0x3f7959fb	0.97402924
25	0x3eccf29b	0.40028843
26	0x3eaf23a8	0.3420689
27	0x3f13b69b	0.5770051
28	0x3f3d851b	0.7403123
29	0x3f16c6e0	0.5889721
30	0x3ed714a0	0.42007923
31	0x3eb4d4b8	0.35318542

module.layer2.2.bias f4 [32]
0	0xbb749d1c	-0.003732509
1	0xbce2be15	-0.027678529
2	0xbd3be295	-0.045870382
3	0xbc9b38ef	-0.018948046
4	0xbc857dae	-0.01629528
5	0xbd15c360	-0.036563277
6	0xbd1eb604	-0.038747802
7	0x3c9298bd	0.017895097
8	0xbd75930a	-0.05995468
9	0xbcdf8ffc	-0.027290337
10	0xbd4c2583	-0.04984046
11	0xbd26889c	-0.040657625
12	0xbc8ac71e	-0.01694065
13	0xbd398df0	-0.045301378
14	0xbd153510	-0.036427557
15	0xbd3adea6	-0.04562249
16	0xbd1dad5b	-0.038495403
17	0xbd4d47d4	-0.05011733
18	0xbccf5fe7	-0.025314284
19	0xbc6a0009	-0.014282235
20	0xbd3d7e28	-0.04626289
21	0xbd412a93	-0.047159743
22	0xbd1af39a	-0.037829973
23	0xbd4544ef	-0.048161443
24	0x3ad710db	0.0016408222
25	0xbca988a8	-0.020695046
26	0xbd1a63ec	-0.03769295
27	0xbd0b4fba	-0.03401158
28	0xbd6fdb7e	-0.058558933
29	0xbd2a334c	-0.041552827
30	0xbd55a6b7	-0.052160945
31	0xbc5274af	-0.012845202

module.layer2.2.running_mean f4 [32]
0	0x3d2c8ea7	0.04212823
1	0x3d75f62d	0.060049225
2	0x3dcf8715	0.10133187
3	0x3cb99275	0.022652844
4	0x3d24cc7f	0.040234085
5	0x3d832c13	0.06404891
6	0x3d1e8f4c	0.038710877
7	0x3d29996b	0.041406076
8	0x3d7a6d65	0.061139483
9	0x3d468a45	0.048471708
10	0x3dc25f16	0.094907925
11	0x3dd587c5	0.104262866
12	0x3ce17f27	0.027526451
13	0x3cc7c74f	0.02438703
14	0x3e0780a7	0.1323267
15	0x3cb60f64	0.022224136
16	0x3d757f9c	0.05993615
17	0x3d86fcba	0.065911725
18	0x3ca567c5	0.020191083
19	0x3c5f228b	0.0136190755
20	0x3d8d1473	0.06888666
21	0x3e13a7a1	0.14419414
22	0x3d445de1	0.047941092
23	0x3d84060c	0.06446466
24	0x3db8aac9	0.0901695
25	0x3c2ceace	0.010554029
26	0x3d278255	0.04089578
27	0x3cd9f136	0.026604276
28	0x3d921165	0.07132224
29	0x3d07801d	0.033081163
30	0x3d3a64ec	0.045506403
31	0x3c70b323	0.014691147

module.layer2.2.running_var f4 [32]
0	0x3d031908	0.032006294
1	0x3d088c50	0.033336937
2	0x3d7a98bc	0.061180815
3	0x3c3c382e	0.011488004
4	0x3cb57efe	0.022155281
5	0x3d27e8be	0.040993445
6	0x3ca386af	0.019961683
7	0x3ce10509	0.027468221
8	0x3d17082b	0.036873024
9	0x3cfd8721	0.030948224
10	0x3d8a3eb6	0.067502424
11	0x3da26a43	0.07930424
12	0x3c949ff1	0.018142672
13	0x3c612ac8	0.01374311
14	0x3dc5b8f0	0.09654415
15	0x3c81a4b6	0.01582561
16	0x3d1de477	0.03854796
17	0x3d2371ac	0.039903328
18	0x3c31c07b	0.010849114
19	0x3c0c59f6	0.00856637
20	0x3d62b55e	0.055348746
21	0x3dd90e80	0.10598469
22	0x3cc22252	0.023698006
23	0x3d2b1949	0.04177216
24	0x3d56d094	0.05244501
25	0x3bd3cd35	0.0064636716
26	0x3cdb44f5	0.02676628
27	0x3c8a3274	0.016869761
28	0x3d1344c0	0.035954237
29	0x3cb0f0a1	0.021599116
30	0x3ccfc01f	0.025360165
31	0x3c04a287	0.00809539

module.fc.weight f4 [10, 1568]
0	0x3a0ace34	0.0005295009
1	0xbd46ceaa	-0.048536934
2	0xbc52c09b	-0.012863304
3	0x3caab7bb	0.020839563
4	0x3c35830f	0.01107861
5	0x3ca31056	0.01990525
6	0xbc0b55e8	-0.008504368
7	0xbc0f862c	-0.008760016
8	0x3cdeef19	0.02721362
9	0x3d35be80	0.044371128
10	0x3ab2369e	0.00135966
11	0xbd32ac20	-0.043621182
12	0xbd002752	-0.0312875
13	0x3bdef848	0.0068045
14	0xbc8016dc	-0.0156359
15	0x3cbf145d	0.02332514
16	0x3d225694	0.03963335
17	0xbd548c21	-0.05189145
18	0x3cab5e55	0.020919004
19	0x3d34bb7d	0.044124115
20	0x3d366e46	0.04453876
21	0x3d58d404	0.05293657
22	0x3c2bba1e	0.0104813855
23	0xbc76f3b2	-0.01507275
24	0xbce7ba55	-0.028287092
25	0x3d7c980e	0.06166845
26	0x3d8c59d5	0.068530716
27	0x3d1841d3	0.03717215
28	0x3c52dbdf	0.012869804
29	0x3d57e08c	0.05270438
30	0xbd162dcd	-0.036664773
31	0x3d270441	0.04077554
32	0x3d91f207	0.07126241
33	0x3c84c78d	0.016208434
34	0x3cc1d457	0.023660822
35	0x3d3600a6	0.044434212
36	0x3d9091d3	0.07059064
37	0x3d111c2b	0.035427254
38	0xbd146072	-0.03622479
39	0x3cfa1575	0.03052781
40	0xbd48db92	-0.049037524
41	0xbc2c59f3	-0.010519492
42	0x3d29aca9	0.041424427
43	0x3ce3aea2	0.027793232
44	0x3d16e375	0.036838014
45	0xbd5e074b	-0.054206174
46	0xbd6b0e4c	-0.05738668
47	0xbc94978d	-0.018138671
48	0xbccc4e3d	-0.02493965
49	0xbcb7c8e7	-0.022434665
50	0xbd34f880	-0.0441823
51	0xbbde4894	-0.0067835543
52	0xbd507caa	-0.05090014
53	0xbd1787cd	-0.036994744
54	0xbd2a1cb9	-0.0415313
55	0x3c578670	0.013154611
56	0x3b1c3e74	0.0023840936
57	0x3bf0e7be	0.0073518446
58	0xbcc2cb2e	-0.023778524
59	0xbbbdf24c	-0.0057967063
60	0xbbc08473	-0.005875164
61	0xbc38ec64	-0.011286829
62	0x3ca49340	0.020089746
63	0xbcc39523	-0.023874825
64	0xbd4ab527	-0.049489167
65	0xbb4f06cf	-0.0031589752
66	0x3bcc6dac	0.00623866
67	0x3b799aef	0.0038086732
68	0x3c71affb	0.01475143
69	0xbb927804	-0.0044698734
70	0xba1a3a46	-0.0005883317
71	0xbd12485a	-0.03571353
72	0xbd29f4d8	-0.041493267
73	0xbc84d49a	-0.016214658
74	0xbc21d999	-0.0098785395
75	0xbd099acc	-0.03359489
76	0xbd25803f	-0.040405508
77	0xbca5662b	-0.020190319
78	0xbd97d421	-0.07413507
79	0x3ccb1007	0.024787916
80	0x3d11c253	0.035585713
81	0xbc6f2444	-0.014596049
82	0xb9a39551	-0.00031201032
83	0xbd22ce55	-0.039747555
84	0x3a042ad6	0.00050417834
85	0xbd27b79a	-0.04094658
86	0x39cdbab9	0.00039239766
87	0xbc1b61cb	-0.009483765
88	0xba78dcbc	-0.0009493341
89	0x3caeb328	0.021325663
90	0xbd13f2cb	-0.036120217
91	0xbd0b0916	-0.033944212
92	0xbc5e7c59	-0.0135794515
93	0x3d6943e9	0.05694953
94	0x3d6e52f2	0.05818457
95	0x3ce7280a	0.028217334
96	0x3c78f4f0	0.015195116
97	0x3cad7c03	0.021177297
98	0xbd2b42c1	-0.04181171
99	0xbc908809	-0.017642992
100	0xbbf91487	-0.007601324
101	0x3ae28917	0.0017283288
102	0x3c9bb3ff	0.019006727
103	0x3bb5f893	0.005553314
104	0x3b813b7d	0.003943859
105	0xbd1b9aaf	-0.037989315
106	0xbd0f0efa	-0.034926392
107	0xbafadcf0	-0.0019139331
108	0xbd0f63f5	-0.035007436
109	0x3cc31f2b	0.023818573
110	0x3bd1d20c	0.0064032134
111	0xbcad414b	-0.021149298
112	0xbc125b9a	-0.008932972
113	0xbc4fa42d	-0.01267342
114	0xbcf31342	-0.029672269
115	0xbcabbbdf	-0.020963607
116	0xbd6ccb11	-0.057810847
117	0xbd814e13	-0.063137196
118	0xbd1b692b	-0.037942093
119	0xbd353d0d	-0.044247676
120	0xbd78cf3d	-0.060744513
121	0x3cff2c3e	0.031149026
122	0x3a996f0a	0.0011706066
123	0x3d763fa6	0.060119294
124	0xbb966969	-0.0045902026
125	0xbdd64ab8	-0.1046347
126	0xbda635a1	-0.08115698
127	0xbd1dd946	-0.038537286
128	0x3d102baa	0.03519789
129	0xbb83e97c	-0.0040256362
130	0x3d785aa2	0.06063331
131	0x3d074c74	0.033031896
132	0x3c85e9a1	0.016346755
133	0xbd943435	-0.0723652
134	0xbc564d83	-0.013080004
135	0xbb4383de	-0.0029833238
136	0xbd4cc61a	-0.049993612
137	0xbcfd9b36	-0.0309578
138	0xbb84406d	-0.0040360005
139	0x3d0aec7e	0.033916943
140	0xbd09b30e	-0.033618025
141	0xbca4b604	-0.020106323
142	0xbcf81494	-0.03028325
143	0xbd95e63a	-0.07319303
144	0xbd906e48	-0.070522845
145	0xbcb0baa6	-0.021573376
146	0x3c7f1cbf	0.015570818
147	0x3be5ed61	0.007016823
148	0xbd63774a	-0.055533685
149	0xbd218c00	-0.039440155
150	0x3ca76a4c	0.020436428
151	0x3c0f9381	0.008763195
152	0x3b79ccc1	0.0038116428
153	0xbc9625ae	-0.018328514
154	0xbc847ccc	-0.016172789
155	0x3c9090ca	0.017647166
156	0x3c0a23ba	0.008431369
157	0xba85b173	-0.0010199979
158	0x3d34d47a	0.044147946
159	0x3afe2e3d	0.0019392442
160	0xbc311200	-0.010807514
161	0xbc59b5d8	-0.013287984
162	0xbb5d8b2f	-0.0033804884
163	0xbc04a0d4	-0.008094985
164	0xbb8dd0c1	-0.004327864
165	0xbca26cd1	-0.019827278
166	0xbd6909d9	-0.056894157
167	0xbda211ec	-0.079135746
168	0xbaeeecab	-0.0018228492
169	0xbdd9eddf	-0.106410734
170	0xbd21555b	-0.039388042
171	0x3a08bfef	0.00052165886
172	0xbd2e7c1b	-0.042598825
173	0xbd858e54	-0.065212876
174	0xbd164824	-0.036689892
175	0xbd5d0fe5	-0.053970236
176	0xbda6f01d	-0.08151267
177	0xbd23b84e	-0.03997069
178	0xba55f3a1	-0.0008161609
179	0xbc7328ee	-0.014841301
180	0xbbdd39f7	-0.0067512947
181	0xbd813313	-0.0630857
182	0xbdaaddef	-0.08343112
183	0xbd99912b	-0.07498392
184	0x3bb0373c	0.005377678
185	0x3d6f4bea	0.058422007
186	0x3d8210b1	0.0635084
187	0x3d2d88e6	0.042366885
188	0xbbb7da22	-0.0056107203
189	0xbdbd0076	-0.092286035
190	0x3c6847eb	0.014177303
191	0xbd40690c	-0.04697518
192	0xbd6bec6a	-0.05759851
193	0xbcb1ae84	-0.02168966
194	0x3c8014fd	0.015635008
195	0xbbd1edd8	-0.006406527
196	0xbc4045ee	-0.011735423
197	0xbd49807f	-0.04919481
198	0x3bba0079	0.005676326
199	0x3c66998d	0.014074695
200	0x3c5ad216	0.013355752
201	0xbd550aa3	-0.052012097
202	0xbb8370da	-0.0040112557
203	0x3c25696c	0.010095935
204	0x3b6a39bd	0.003573998
205	0xbd23f438	-0.040027827
206	0x3c8697d3	0.016429817
207	0xbc021fb4	-0.007942129
208	0xbcaa8258	-0.020814106
209	0x3c3b9c59	0.01145085
210	0x3ce90790	0.028445989
211	0x3da767f1	0.08174122
212	0x3d22d00f	0.0397492
213	0xbc931e76	-0.01795886
214	0xbb2119a3	-0.002458193
215	0x3cfb8127	0.030701233
216	0x3d0e2738	0.03470537
217	0x3d147517	0.036244478
218	0x3d547782	0.051871784
219	0x3be6b585	0.007040682
220	0x3d06f556	0.032948814
221	0xbcf805c9	-0.030276196
222	0x3d7fcff3	0.062454175
223	0x3d29876d	0.041388918
224	0x3bf85d4a	0.0075794803
225	0x3c40cd1e	0.011767654
226	0x3d0e196f	0.034692224
227	0x3d157643	0.036489736
228	0x3ba4a695	0.005024741
229	0xbc5d6768	-0.0135134235
230	0x3d1bf51e	0.03807556
231	0xbd03f581	-0.032216553
232	0xbd3ababe	-0.045588247
233	0x3cb64cf0	0.022253484
234	0xbc7dbdd2	-0.015487151
235	0xbc7702a2	-0.015076311
236	0xbd90675d	-0.07050965
237	0xbd00b0ed	-0.03141873
238	0xbdb83a45	-0.08995489
239	0xbd3eeb89	-0.046611343
240	0xbca792b1	-0.02045569
241	0xbddd2d9f	-0.10799717
242	0xbd7c5244	-0.061601892
243	0xbdd7164e	-0.10502301
244	0xbc45cba5	-0.012072478
245	0xbcf6b955	-0.03011767
246	0xbc4daabc	-0.012552913
247	0x3d069f14	0.032866552
248	0xbb051e90	-0.0020312406
249	0x3d2d095b	0.04224525
250	0x3c01f8d8	0.007932864
251	0x3c640050	0.01391609
252	0xbc4032cb	-0.01173086
253	0xbc67cd42	-0.014148058
254	0xbcb1771a	-0.021663237
255	0x3c38beec	0.011275988

module.fc.bias f4 [10]
0	0xbcbe77d6	-0.023250502
1	0x3d59bdab	0.053159397
2	0x3b306e27	0.0026921125
3	0xbcf05b2c	-0.02934035
4	0xbc2a24e1	-0.010384769
5	0x3c0f1145	0.008732145
6	0xbaa67e3b	-0.0012702415
7	0xbbd6b6d1	-0.006552555
8	0x3b2eac16	0.0026652864
9	0x3c318f7b	0.010837431
